{"model3": {"loss": "binary_crossentropy", "config": [{"class_name": "Convolution2D", "config": {"b_regularizer": null, "W_constraint": null, "b_constraint": null, "name": "convolution2d_10", "activity_regularizer": null, "trainable": true, "dim_ordering": "tf", "nb_col": 3, "subsample": [1, 1], "init": "glorot_uniform", "bias": true, "nb_filter": 32, "input_dtype": "float32", "border_mode": "valid", "batch_input_shape": [null, 150, 150, 3], "W_regularizer": null, "activation": "linear", "nb_row": 3}}, {"class_name": "Activation", "config": {"activation": "relu", "trainable": true, "name": "activation_16"}}, {"class_name": "MaxPooling2D", "config": {"name": "maxpooling2d_10", "trainable": true, "dim_ordering": "tf", "pool_size": [2, 2], "strides": [2, 2], "border_mode": "valid"}}, {"class_name": "Convolution2D", "config": {"W_constraint": null, "b_constraint": null, "name": "convolution2d_11", "activity_regularizer": null, "trainable": true, "dim_ordering": "tf", "nb_col": 3, "subsample": [1, 1], "init": "glorot_uniform", "bias": true, "nb_filter": 32, "border_mode": "valid", "b_regularizer": null, "W_regularizer": null, "activation": "linear", "nb_row": 3}}, {"class_name": "Activation", "config": {"activation": "relu", "trainable": true, "name": "activation_17"}}, {"class_name": "MaxPooling2D", "config": {"name": "maxpooling2d_11", "trainable": true, "dim_ordering": "tf", "pool_size": [2, 2], "strides": [2, 2], "border_mode": "valid"}}, {"class_name": "Convolution2D", "config": {"W_constraint": null, "b_constraint": null, "name": "convolution2d_12", "activity_regularizer": null, "trainable": true, "dim_ordering": "tf", "nb_col": 3, "subsample": [1, 1], "init": "glorot_uniform", "bias": true, "nb_filter": 64, "border_mode": "valid", "b_regularizer": null, "W_regularizer": null, "activation": "linear", "nb_row": 3}}, {"class_name": "Activation", "config": {"activation": "relu", "trainable": true, "name": "activation_18"}}, {"class_name": "MaxPooling2D", "config": {"name": "maxpooling2d_12", "trainable": true, "dim_ordering": "tf", "pool_size": [2, 2], "strides": [2, 2], "border_mode": "valid"}}, {"class_name": "Flatten", "config": {"trainable": true, "name": "flatten_4"}}, {"class_name": "Dense", "config": {"W_constraint": null, "b_constraint": null, "name": "dense_7", "activity_regularizer": null, "trainable": true, "init": "glorot_uniform", "bias": true, "input_dim": null, "b_regularizer": null, "W_regularizer": null, "activation": "linear", "output_dim": 64}}, {"class_name": "Activation", "config": {"activation": "relu", "trainable": true, "name": "activation_19"}}, {"class_name": "Dropout", "config": {"p": 0.5, "trainable": true, "name": "dropout_4"}}, {"class_name": "Dense", "config": {"W_constraint": null, "b_constraint": null, "name": "dense_8", "activity_regularizer": null, "trainable": true, "init": "glorot_uniform", "bias": true, "input_dim": null, "b_regularizer": null, "W_regularizer": null, "activation": "linear", "output_dim": 8}}, {"class_name": "Activation", "config": {"activation": "softmax", "trainable": true, "name": "activation_20"}}], "optimizer": "nadam", "history": {"acc": [… "loss": [… "val_acc": [… "val_loss": [… "model2": {"loss": "binary_crossentropy", "config": [{"class_name": "Convolution2D", "config": {"b_regularizer": null, "W_constraint": null, "b_constraint": null, "name": "convolution2d_7", "activity_regularizer": null, "trainable": true, "dim_ordering": "tf", "nb_col": 3, "subsample": [1, 1], "init": "glorot_uniform", "bias": true, "nb_filter": 32, "input_dtype": "float32", "border_mode": "valid", "batch_input_shape": [null, 150, 150, 3], "W_regularizer": null, "activation": "linear", "nb_row": 3}}, {"class_name": "Activation", "config": {"activation": "relu", "trainable": true, "name": "activation_11"}}, {"class_name": "MaxPooling2D", "config": {"name": "maxpooling2d_7", "trainable": true, "dim_ordering": "tf", "pool_size": [2, 2], "strides": [2, 2], "border_mode": "valid"}}, {"class_name": "Convolution2D", "config": {"W_constraint": null, "b_constraint": null, "name": "convolution2d_8", "activity_regularizer": null, "trainable": true, "dim_ordering": "tf", "nb_col": 3, "subsample": [1, 1], "init": "glorot_uniform", "bias": true, "nb_filter": 32, "border_mode": "valid", "b_regularizer": null, "W_regularizer": null, "activation": "linear", "nb_row": 3}}, {"class_name": "Activation", "config": {"activation": "relu", "trainable": true, "name": "activation_12"}}, {"class_name": "MaxPooling2D", "config": {"name": "maxpooling2d_8", "trainable": true, "dim_ordering": "tf", "pool_size": [2, 2], "strides": [2, 2], "border_mode": "valid"}}, {"class_name": "Convolution2D", "config": {"W_constraint": null, "b_constraint": null, "name": "convolution2d_9", "activity_regularizer": null, "trainable": true, "dim_ordering": "tf", "nb_col": 3, "subsample": [1, 1], "init": "glorot_uniform", "bias": true, "nb_filter": 64, "border_mode": "valid", "b_regularizer": null, "W_regularizer": null, "activation": "linear", "nb_row": 3}}, {"class_name": "Activation", "config": {"activation": "relu", "trainable": true, "name": "activation_13"}}, {"class_name": "MaxPooling2D", "config": {"name": "maxpooling2d_9", "trainable": true, "dim_ordering": "tf", "pool_size": [2, 2], "strides": [2, 2], "border_mode": "valid"}}, {"class_name": "Flatten", "config": {"trainable": true, "name": "flatten_3"}}, {"class_name": "Dense", "config": {"W_constraint": null, "b_constraint": null, "name": "dense_5", "activity_regularizer": null, "trainable": true, "init": "glorot_uniform", "bias": true, "input_dim": null, "b_regularizer": null, "W_regularizer": null, "activation": "linear", "output_dim": 64}}, {"class_name": "Activation", "config": {"activation": "relu", "trainable": true, "name": "activation_14"}}, {"class_name": "Dropout", "config": {"p": 0.5, "trainable": true, "name": "dropout_3"}}, {"class_name": "Dense", "config": {"W_constraint": null, "b_constraint": null, "name": "dense_6", "activity_regularizer": null, "trainable": true, "init": "glorot_uniform", "bias": true, "input_dim": null, "b_regularizer": null, "W_regularizer": null, "activation": "linear", "output_dim": 8}}, {"class_name": "Activation", "config": {"activation": "softmax", "trainable": true, "name": "activation_15"}}], "optimizer": "adadelta", "history": {"acc": [… "loss": [… "val_acc": [… "val_loss": [… "model": {"loss": "binary_crossentropy", "config": [{"class_name": "Convolution2D", "config": {"b_regularizer": null, "W_constraint": null, "b_constraint": null, "name": "convolution2d_4", "activity_regularizer": null, "trainable": true, "dim_ordering": "tf", "nb_col": 3, "subsample": [1, 1], "init": "glorot_uniform", "bias": true, "nb_filter": 32, "input_dtype": "float32", "border_mode": "valid", "batch_input_shape": [null, 150, 150, 3], "W_regularizer": null, "activation": "linear", "nb_row": 3}}, {"class_name": "Activation", "config": {"activation": "relu", "trainable": true, "name": "activation_6"}}, {"class_name": "MaxPooling2D", "config": {"name": "maxpooling2d_4", "trainable": true, "dim_ordering": "tf", "pool_size": [2, 2], "strides": [2, 2], "border_mode": "valid"}}, {"class_name": "Convolution2D", "config": {"W_constraint": null, "b_constraint": null, "name": "convolution2d_5", "activity_regularizer": null, "trainable": true, "dim_ordering": "tf", "nb_col": 3, "subsample": [1, 1], "init": "glorot_uniform", "bias": true, "nb_filter": 32, "border_mode": "valid", "b_regularizer": null, "W_regularizer": null, "activation": "linear", "nb_row": 3}}, {"class_name": "Activation", "config": {"activation": "relu", "trainable": true, "name": "activation_7"}}, {"class_name": "MaxPooling2D", "config": {"name": "maxpooling2d_5", "trainable": true, "dim_ordering": "tf", "pool_size": [2, 2], "strides": [2, 2], "border_mode": "valid"}}, {"class_name": "Convolution2D", "config": {"W_constraint": null, "b_constraint": null, "name": "convolution2d_6", "activity_regularizer": null, "trainable": true, "dim_ordering": "tf", "nb_col": 3, "subsample": [1, 1], "init": "glorot_uniform", "bias": true, "nb_filter": 64, "border_mode": "valid", "b_regularizer": null, "W_regularizer": null, "activation": "linear", "nb_row": 3}}, {"class_name": "Activation", "config": {"activation": "relu", "trainable": true, "name": "activation_8"}}, {"class_name": "MaxPooling2D", "config": {"name": "maxpooling2d_6", "trainable": true, "dim_ordering": "tf", "pool_size": [2, 2], "strides": [2, 2], "border_mode": "valid"}}, {"class_name": "Flatten", "config": {"trainable": true, "name": "flatten_2"}}, {"class_name": "Dense", "config": {"W_constraint": null, "b_constraint": null, "name": "dense_3", "activity_regularizer": null, "trainable": true, "init": "glorot_uniform", "bias": true, "input_dim": null, "b_regularizer": null, "W_regularizer": null, "activation": "linear", "output_dim": 64}}, {"class_name": "Activation", "config": {"activation": "relu", "trainable": true, "name": "activation_9"}}, {"class_name": "Dropout", "config": {"p": 0.5, "trainable": true, "name": "dropout_2"}}, {"class_name": "Dense", "config": {"W_constraint": null, "b_constraint": null, "name": "dense_4", "activity_regularizer": null, "trainable": true, "init": "glorot_uniform", "bias": true, "input_dim": null, "b_regularizer": null, "W_regularizer": null, "activation": "linear", "output_dim": 8}}, {"class_name": "Activation", "config": {"activation": "softmax", "trainable": true, "name": "activation_10"}}], "optimizer": "rmsprop", "history": {"acc": [… "loss": [… "val_acc": [… "val_loss": [… 